{
  "model_name": "cifar10",
  "layers_config": {
    "config": {
      "layers": [
        {
          "class_name": "InputLayer",
          "config": { "batch_input_shape": [null, 10, 10, 3] }
        },
        {
          "class_name": "Rescaling",
          "config": { "scale": 0.00784313725490196, "offset": -1 }
        },
        {
          "class_name": "Conv2D",
          "config": {
            "filters": 16,
            "kernel_size": [3, 3],
            "strides": [1, 1],
            "activation": "relu",
            "padding": "same"
          }
        },
        {
          "class_name": "MaxPooling2D",
          "config": {
            "pool_size": [2, 2],
            "strides": [2, 2],
            "padding": "valid"
          }
        },
        {
          "class_name": "Conv2D",
          "config": {
            "filters": 32,
            "kernel_size": [3, 3],
            "strides": [1, 1],
            "activation": "relu",
            "padding": "same"
          }
        },
        {
          "class_name": "MaxPooling2D",
          "config": {
            "pool_size": [2, 2],
            "strides": [2, 2],
            "padding": "same"
          }
        },
        { "class_name": "Flatten" },
        {
          "class_name": "Dense",
          "config": { "units": 20, "activation": "relu" }
        },
        {
          "class_name": "Dense",
          "config": { "units": 4, "activation": "linear" }
        }
      ]
    }
  },
  "weight_b64": "…",
  "training_traits": {
    "structure_gen": "Custom",
    "n_layers": 3,
    "max_nodes": 20,
    "activation_func": "ReLU",
    "epoch_num": 10
  },
  "classes_name": ["cryptoadz", "cryptopunks", "moonbirds", "nouns"]
}
